mnist/part2-mnist/mnist_model_fully_connected.pt (torch, 906007 bytes, 8 tensors)

weight f4 [32, 1, 3, 3]
0	0x3e8ca1e3	0.2746726
1	0xbcc76f42	-0.024345044
2	0xbf57ebff	-0.84344476
3	0x3e4550c1	0.19269086
4	0x3f731dd8	0.9496741
5	0x3e5962b2	0.21229056
6	0xbf2eae75	-0.6823495
7	0x3e8b7324	0.27236283
8	0x3cbcdb2f	0.023053734
9	0xbf012d45	-0.504597
10	0x3e8d252e	0.27567428
11	0x3e3db773	0.18527012
12	0xbeae6a49	-0.34065464
13	0x3e08c936	0.13358006
14	0x3ec3c05d	0.382327
15	0xbecd8d5d	-0.40146914
16	0x3e70598c	0.2347166
17	0x3eeda7b6	0.46417016
18	0xbe449283	-0.19196515
19	0xbd85babd	-0.06529758
20	0xbe3aefb5	-0.18255503
21	0xbed36a0b	-0.41291842
22	0xbe99fb82	-0.30074698
23	0xbc6453c9	-0.013935992
24	0xbeabc411	-0.33548024
25	0x3e88cdd1	0.26719525
26	0x3eb9a050	0.3625512
27	0xbe38a2f2	-0.18030909
28	0xbeb11c83	-0.34592065
29	0x3cee4fc9	0.029090779
30	0x3cbbbfe7	0.022918655
31	0x3e1b8436	0.15187153
32	0x3e00762c	0.12545079
33	0xbe975dd7	-0.29563782
34	0x3cc98b31	0.024602504
35	0x3eb9dfda	0.36303598
36	0x3e513b5b	0.20432799
37	0x3ee2ffd7	0.44335815
38	0xbdce993e	-0.100878224
39	0x3d0b27fe	0.033973686
40	0xbdd3442f	-0.10315739
41	0xbf190588	-0.59774065
42	0x3eceb009	0.4036868
43	0xbda65d73	-0.08123293
44	0x3cc5dd62	0.024153415
45	0x3d085570	0.033284605
46	0xbefb7005	-0.49108902
47	0xbe70bc1b	-0.23509257
48	0x3e9f4242	0.31105238
49	0xbf17fffc	-0.59374976
50	0xbef828b1	-0.48468545
51	0x3f3e3390	0.7429743
52	0x3f10951a	0.5647751
53	0x3ea60615	0.32426515
54	0xbe6f21a4	-0.23352677
55	0xbf2c13da	-0.6721779
56	0xbecfd825	-0.40594593
57	0xbed13cb3	-0.40866622
58	0x3d6e4b96	0.058177553
59	0x3f20def3	0.62840194
60	0x3f17640e	0.59137046
61	0x3f0c27b6	0.54748094
62	0xbe84bce2	-0.25925356
63	0x3e183040	0.14862156
64	0xbec4a2a6	-0.3840534
65	0xbe473d93	-0.19457082
66	0x3eb5255b	0.35380062
67	0xbe2c897a	-0.16849318
68	0x3df147bc	0.1178126
69	0x3e94ef0e	0.29088634
70	0xbd66977c	-0.05629681
71	0x3dd2b098	0.10287589
72	0x3ed92963	0.42414388
73	0xbec3b926	-0.38227195
74	0xbf3e3e4a	-0.74313796
75	0x3e9f2764	0.3108474
76	0x3ea1e6c2	0.31621367
77	0xbcbaa36e	-0.022783007
78	0xbca7d480	-0.02048707
79	0x3ea4de13	0.3220068
80	0x3e5affc0	0.21386623
81	0xbe4cfbd8	-0.20017946
82	0x3e14111f	0.14459656
83	0xbea067c6	-0.31329173
84	0x3e562414	0.209122
85	0x3d51a464	0.051182166
86	0xbf21c164	-0.63185716
87	0x3ef6be96	0.4819228
88	0x3f00d814	0.5032971
89	0xbf00673b	-0.5015752
90	0xbd8131fd	-0.06308363
91	0x3e06b20c	0.13153857
92	0xbd790c83	-0.060802948
93	0xbd6b9b24	-0.057521
94	0xbe66192d	-0.22470541
95	0x3e667612	0.22505978
96	0xbe9f92a7	-0.31166574
97	0x3e866b0d	0.26253548
98	0xbd573c36	-0.052547656
99	0xbbc08720	-0.005875483
100	0xbed357b1	-0.4127784
101	0xbe851607	-0.25993368
102	0xbf073be6	-0.5282577
103	0xbe011f18	-0.12609518
104	0xbeac721b	-0.33680806
105	0xbec5e68d	-0.3865246
106	0xbe2284c4	-0.15870959
107	0xbce495c0	-0.027903438
108	0xbde82a80	-0.11336231
109	0xbe503a9f	-0.20334862
110	0xbdb76176	-0.08954136
111	0xbe64796f	-0.22311948
112	0xbeba3411	-0.3636785
113	0xbe9979d0	-0.29975748
114	0x3ea81cdc	0.32834518
115	0x3dde1fdf	0.10845923
116	0xbea094fe	-0.31363672
117	0x3e85d05e	0.26135534
118	0xbdc3fbdf	-0.09569525
119	0xbf01bb4c	-0.5067642
120	0xbe214af8	-0.15751255
121	0xbe156170	-0.1458795
122	0xbe89101f	-0.26770112
123	0x3ee25b51	0.44210294
124	0x3e0a3b99	0.13499297
125	0x3f067d0d	0.5253456
126	0xbe9c6160	-0.3054304
127	0xbe7d11ce	-0.24713823
128	0x3dfc8c19	0.12331409
129	0x3f04955e	0.51790416
130	0x3f0eaa8b	0.5572898
131	0x3ef38828	0.47564816
132	0xbe8464b9	-0.25858095
133	0xbe9b177f	-0.30291364
134	0xbf05c73b	-0.52257127
135	0xbeeaf4f0	-0.45889997
136	0xbf17050a	-0.58992064
137	0xbeda4d85	-0.42637268
138	0xbe0718b4	-0.13193017
139	0x3e35932d	0.17731924
140	0x3e7d6301	0.24744798
141	0xbd6bff30	-0.057616413
142	0x3ec7b3fc	0.39004505
143	0x3e4d64ee	0.20058033
144	0xbf1100f2	-0.5664207
145	0x3e4677ea	0.19381681
146	0x3ef1f303	0.47255716
147	0xbf397413	-0.7244274
148	0x3e8a41b7	0.2700326
149	0x3ece4ccf	0.40292975
150	0xbefc9007	-0.49328634
151	0x3e19bd3f	0.15013598
152	0x3ce79e43	0.028273707
153	0xbf3f387a	-0.7469555
154	0x3ef2e70d	0.47441903
155	0x3f0ccf5a	0.55003893
156	0xbd034917	-0.032052126
157	0x3f836eb8	1.0268164
158	0xbed27317	-0.41103432
159	0x3f0f02c0	0.5586357
160	0x3ec3a742	0.38213545
161	0xbf57d522	-0.8430959
162	0x3f5a5d3d	0.8529852
163	0x3edfd349	0.43715885
164	0x3f131737	0.574573
165	0xbe551f46	-0.20812711
166	0x3eaf6ab8	0.34261107
167	0xbdb1b361	-0.08676792
168	0xbf4c9bbe	-0.79925144
169	0xbf889ac0	-1.0672226
170	0xbe7c8820	-0.24661303
171	0x3df94776	0.12171833
172	0x3ca3dd3f	0.02000296
173	0xbc0aaea6	-0.008464491
174	0xbe5eade0	-0.21746016
175	0xbe1cc84d	-0.15310784
176	0xbea35422	-0.31900126
177	0xbe89b0e5	-0.26892772
178	0xbe85c830	-0.26129293
179	0x3e215c98	0.15757978
180	0x3f27bf4a	0.6552626
181	0x3f2cb314	0.6746075
182	0xbe993d51	-0.29929593
183	0x3ee6d19e	0.450818
184	0xbf0644ef	-0.52448934
185	0xbf270c0f	-0.65252775
186	0xbe47432b	-0.19459216
187	0xbedcdfba	-0.4313944
188	0xbd1ad8a6	-0.03780427
189	0x3e8d2a5b	0.27571377
190	0x3cf482d0	0.029847533
191	0xbed02ce9	-0.40659264
192	0x3ed6c563	0.4194747
193	0xbe8df41a	-0.27725297
194	0xbe6853db	-0.22688238
195	0x3e1fa9d6	0.15592131
196	0x3d79aab0	0.060953796
197	0xbe613fb1	-0.21996953
198	0x3d20bd23	0.039242875
199	0xbc94614e	-0.018112805
200	0xbe3acf05	-0.18243034
201	0xbe492e01	-0.19646455
202	0x3e5f0652	0.21779755
203	0xbe5752e6	-0.21027717
204	0xbe16e6da	-0.147365
205	0x3dc406c9	0.09571607
206	0xbcb86f14	-0.022513904
207	0xbeab7548	-0.33487916
208	0x3e9c908b	0.30579028
209	0xbd807ec9	-0.06274182
210	0xbedcc704	-0.43120587
211	0x3e8ac1fd	0.27101126
212	0x3e3480cc	0.17627257
213	0xbef48fd5	-0.47765985
214	0x3e8adff1	0.2712398
215	0x3d50ef2e	0.05100935
216	0xbe18cef7	-0.14922701
217	0x3eb20a99	0.3477371
218	0x3e1e3668	0.15450442
219	0xbdcdda2b	-0.10051378
220	0x3d145325	0.036212105
221	0x3f0412ec	0.5159137
222	0xbf12c5ad	-0.5733288
223	0xbec5a316	-0.38600987
224	0xbd497bca	-0.04919032
225	0xbe3c989a	-0.18417588
226	0x3e4eadfc	0.20183557
227	0xbea33531	-0.3187652
228	0x3e82666f	0.25468776
229	0x3ebb9f36	0.36644906
230	0xbdd8595b	-0.10563918
231	0xbe076c35	-0.13224871
232	0x3d6f43cc	0.058414266
233	0x3dd82ad6	0.10555045
234	0xbe99b401	-0.30020145
235	0xbe260ff7	-0.16217028
236	0xbe6a99a3	-0.2291017
237	0x3ec2ac35	0.3802201
238	0xbe8339d9	-0.25630072
239	0xbee197de	-0.44061178
240	0xbd8f060f	-0.069835775
241	0x3ecee608	0.40409875
242	0x3f11fbfa	0.5702511
243	0x3ebf2ce3	0.37338933
244	0x3d91401c	0.07092306
245	0xbe65d8d1	-0.2244599
246	0xbc4a15ae	-0.01233427
247	0x3e2534cc	0.16133422
248	0xbe59039a	-0.2119278
249	0xbebaef03	-0.36510476
250	0xbdb6746b	-0.08908924
251	0xbe74a0d9	-0.23889484
252	0xbef15f36	-0.47142953
253	0xbf0dd5fd	-0.55404645
254	0x3db7ec76	0.08980648
255	0xbee38ece	-0.4444489

bias f4 [32]
0	0xbe773b66	-0.24143752
1	0xbe3684a3	-0.17824034
2	0x3e3dc414	0.18531829
3	0xbdf99755	-0.121870674
4	0xbe546439	-0.20741357
5	0xbe1688d1	-0.14700629
6	0xbdce1429	-0.10062439
7	0xbdfd1440	-0.12357378
8	0xbe903f27	-0.2817318
9	0xbbef6a47	-0.0073063704
10	0xbea0120e	-0.31263775
11	0x3ef6ca0b	0.48201022
12	0x3e765b07	0.24058162
13	0xbddb339d	-0.10703204
14	0xbc1e9cc7	-0.009680933
15	0x3d42babf	0.047541376
16	0xbcf2dca4	-0.029646225
17	0xbf341725	-0.70347816
18	0xbdbb7409	-0.09152991
19	0xbe10d813	-0.14144926
20	0xbc31f80a	-0.01086236
21	0xbcfa788e	-0.030575063
22	0xbd843f85	-0.06457428
23	0x3d18cfe8	0.03730765
24	0xbd7178f4	-0.05895324
25	0xbe122baa	-0.14274469
26	0xbccd7b8f	-0.025083331
27	0xbcae7934	-0.021298029
28	0xbe8951fe	-0.26820368
29	0xbe693fea	-0.22778288
30	0xbe4668bf	-0.19375895
31	0x3d05b4b8	0.03264305

weight f4 [64, 32, 3, 3]
0	0xbd94fdfc	-0.07275006
1	0x3d8d5403	0.069007896
2	0x3c4cf9de	0.012510745
3	0x39b59e2e	0.00034640863
4	0xbdca47b3	-0.09876957
5	0xbda855f3	-0.082195185
6	0x3c0ff4c4	0.008786384
7	0x3e067840	0.13131809
8	0xbb9f5a90	-0.004863091
9	0xbd94d03b	-0.07266279
10	0xbad770b3	-0.0016436785
11	0x3e1b33dd	0.15156503
12	0xbd8658b2	-0.06559886
13	0xbd366f9a	-0.044540025
14	0xbc416cc1	-0.011805714
15	0x3cc020b8	0.023453102
16	0x3d23b1d3	0.03996451
17	0xbc8ccf5e	-0.017188724
18	0x3caf1bb7	0.02137552
19	0xbdabb604	-0.08384326
20	0xbd8969de	-0.06709646
21	0xb9adb1c0	-0.00033129565
22	0xbd493a4a	-0.049127854
23	0x3c6618b2	0.014043974
24	0xbdcfb2ff	-0.10141563
25	0xbd11da5f	-0.035608646
26	0xbd0458f8	-0.03231141
27	0x3d13cc05	0.03608324
28	0xbcdada38	-0.026715383
29	0x3bf30c3e	0.007417231
30	0x3d78c478	0.060734242
31	0xbd8f7ec3	-0.070066
32	0x3c8ded95	0.017325202
33	0xbc7b34bc	-0.015332397
34	0xbcdea01f	-0.027175961
35	0x3d74cdcd	0.05976658
36	0xbd43e81a	-0.04782877
37	0xbd950ea1	-0.07278181
38	0xbc3941b2	-0.011307167
39	0xbd68d7f0	-0.05684656
40	0x3cb1764a	0.02166285
41	0xbd4eee22	-0.05052007
42	0xbcb98fe0	-0.022651613
43	0xbcea6e31	-0.028616996
44	0xba796457	-0.0009513548
45	0x3c9a3b1a	0.01882701
46	0xbdca759b	-0.09885713
47	0xbdc16ad5	-0.09444205
48	0x3de68dd7	0.112575226
49	0x3e535c7a	0.20640746
50	0x3d903831	0.07041968
51	0x3bb73643	0.0055911853
52	0x3cc4b34d	0.024011279
53	0x3d53d8b7	0.051720347
54	0xbd4697f5	-0.04848476
55	0xbd7eb9e2	-0.06218899
56	0xbd4860bb	-0.048920374
57	0x3d219bc8	0.039455205
58	0xbc7b4bf0	-0.015337929
59	0xbd1f844b	-0.038944524
60	0xb82d8a02	-4.1374944e-05
61	0x3d28e495	0.041233618
62	0x3d005ec6	0.031340383
63	0xbd92a9ac	-0.071612686
64	0xbba7c096	-0.0051193936
65	0x3cb06eb6	0.021537166
66	0xbca15693	-0.019694602
67	0x3d8f98de	0.07011579
68	0x3d1ff113	0.039048266
69	0x3d354dc7	0.044263627
70	0x3c89c81b	0.01681905
71	0x3cd2983c	0.025707357
72	0xbd1cf919	-0.038323496
73	0xbd0effd4	-0.034911945
74	0xbc824d48	-0.015905991
75	0xbd810624	-0.06299999
76	0x3c60a0c9	0.013710209
77	0xbb3fe6ef	-0.0029281934
78	0x3cddc499	0.027071284
79	0x3d624c6d	0.055248667
80	0xbc965e91	-0.01835564
81	0xbd9f1252	-0.07767166
82	0xbd87e61b	-0.06635686
83	0xbd1f55f2	-0.038900323
84	0x3d3fb325	0.046801705
85	0x3d54041e	0.05176174
86	0xbd9fb426	-0.077980325
87	0xbc100eb6	-0.00879257
88	0x3c9ff561	0.019526185
89	0x3d62f0be	0.05540537
90	0x3c97182f	0.018444149
91	0x3d24393b	0.04009364
92	0xbd18cf3f	-0.03730702
93	0xbbfafd9a	-0.007659626
94	0xbd26b95a	-0.04070411
95	0xbd6a23e7	-0.057163145
96	0xbb66fdfb	-0.00352466
97	0xbd17dd0d	-0.037076045
98	0x3cb90bcc	0.022588633
99	0x3c992a1a	0.018696833
100	0xbdcbac61	-0.09944988
101	0xbdd56919	-0.104204364
102	0xbd8cb4ca	-0.0687042
103	0xbbf4bf83	-0.007469119
104	0xbdf879e2	-0.12132622
105	0xbcd64029	-0.02615364
106	0xbdc37944	-0.09544614
107	0xbdd3efef	-0.10348498
108	0x3d4cf49a	0.050037958
109	0xbd431f53	-0.047637295
110	0xbddaa18d	-0.106753446
111	0xbd40b1b8	-0.047044486
112	0xbd00e9a3	-0.031472813
113	0xbc973c24	-0.018461294
114	0xbcc577aa	-0.024104912
115	0xbc13e2fe	-0.009026287
116	0xbdc07189	-0.09396655
117	0xbd58f0bf	-0.05296397
118	0xbdd34133	-0.1031517
119	0xbd6cc923	-0.057809006
120	0x3d56654a	0.05234269
121	0x3d1cd449	0.03828839
122	0x3b19086d	0.002335097
123	0xbd021486	-0.031757854
124	0xbbb6a89b	-0.0055742986
125	0x3cf9a063	0.030471986
126	0x3d1218cb	0.035668176
127	0xbbb29891	-0.0054503162
128	0x3cf01d24	0.02931077
129	0xbd92f2af	-0.071751945
130	0xbda40c22	-0.08010127
131	0xbc637c64	-0.0138846375
132	0x3d733944	0.059380785
133	0xbcbb5d4c	-0.022871636
134	0xbd9af315	-0.075658955
135	0xbd8508e2	-0.06495835
136	0xbdb2f599	-0.0873825
137	0xbbfe2edd	-0.0077570514
138	0x3d39f7ed	0.045402456
139	0xbd1ede77	-0.038786378
140	0xbdc6cc4f	-0.097069375
141	0xbcf25d39	-0.029585468
142	0x3bfc7e48	0.0077054836
143	0x3d96e22b	0.07367357
144	0x3c416a54	0.011805136
145	0x3d6158f1	0.05501646
146	0x3d8ce6cf	0.06879961
147	0xbd08756f	-0.03331512
148	0xbdbd8da8	-0.092555344
149	0x3c945769	0.018108087
150	0xbcc17775	-0.023616532
151	0xbd86d1fb	-0.06583019
152	0xbca16b11	-0.019704374
153	0xbdbf9f4f	-0.093565576
154	0xbda08a74	-0.07838908
155	0x3d6fc302	0.058535583
156	0xbd0c3f67	-0.034240153
157	0xbde9eb19	-0.114217944
158	0xbe1c34ea	-0.1525456
159	0xbb841bc5	-0.0040316307
160	0xbd5b54bf	-0.053547617
161	0x3daa84b5	0.08326093
162	0x3cab07e9	0.020877795
163	0x3d05b4a1	0.032642964
164	0x3da4ce31	0.080471404
165	0xbdb9a45d	-0.09064553
166	0x3d6fc2c4	0.058535352
167	0x3d762900	0.060097694
168	0xbdb9365c	-0.09043571
169	0x3c3a862f	0.011384531
170	0xbd31fc82	-0.0434537
171	0x3d1a8778	0.03772685
172	0x3d5a2ea9	0.053267155
173	0xbcc8ebd4	-0.024526514
174	0xbd3543d1	-0.044254128
175	0xbc9f6168	-0.019455627
176	0xbd57703c	-0.05259727
177	0x3d34b520	0.044118047
178	0x3c3298d1	0.010900692
179	0x3cd85048	0.026405469
180	0xbe1983d1	-0.1499169
181	0xbd7f2f28	-0.06230083
182	0xbd48bac5	-0.049006242
183	0xbdbdabd1	-0.09261287
184	0xbd7c5d24	-0.061612263
185	0xbd007d45	-0.031369466
186	0xbdbb1468	-0.091347516
187	0xbe009399	-0.12556304
188	0xbdf3e616	-0.1190912
189	0xbdd8bebe	-0.10583256
190	0x3acb3c00	0.0015505552
191	0xbd39772b	-0.045279663
192	0x3c57bb22	0.0131671745
193	0x3be5b166	0.007009673
194	0xbd164fa2	-0.036697038
195	0xbd09fefd	-0.03369044
196	0x3c82b295	0.015954295
197	0xbd62cc43	-0.05537058
198	0x3d249041	0.040176634
199	0x3c6a03b4	0.014283109
200	0x3ca8449e	0.020540532
201	0x3c352e12	0.011058347
202	0x3d5f999d	0.054589856
203	0x3ca8f133	0.020622825
204	0xbcd62105	-0.026138792
205	0x3d37d8e3	0.044884574
206	0xbc62b799	-0.013837718
207	0xbbad3eca	-0.005287026
208	0xbd04fd87	-0.032468345
209	0x3c1bc3b1	0.009507106
210	0xbd29f3df	-0.04149234
211	0xbd1421b9	-0.036164973
212	0x3b60db79	0.0034310503
213	0xbda1017d	-0.07861612
214	0xbc8862ae	-0.016648617
215	0xbc98c14a	-0.018646855
216	0xbc747147	-0.014919586
217	0x3d021878	0.031761616
218	0x3d94e906	0.07271008
219	0xbd0554c3	-0.03255154
220	0xbbac7c16	-0.0052638156
221	0x3db2fdaf	0.087397926
222	0x3d42d278	0.047564
223	0x3c40789e	0.011747507
224	0xbd6776d6	-0.056509815
225	0xbdcf2e1c	-0.101162165
226	0x3caa654f	0.02080026
227	0x3d7ad402	0.061237343
228	0x3d175f79	0.036956284
229	0xbd2eac94	-0.042645052
230	0xbc89ccb4	-0.016821243
231	0x3d74065c	0.059576377
232	0xbc9a628d	-0.01884582
233	0x3d31ede0	0.043439746
234	0xbd9d327c	-0.07675645
235	0xbdc01360	-0.093786955
236	0xbc9ea658	-0.019366428
237	0x3e00dc63	0.12584071
238	0x3c389ef0	0.011268362
239	0x3c2e191c	0.010626104
240	0x3baefdb0	0.0053403005
241	0x3dc31a64	0.09526518
242	0x3d325685	0.043539543
243	0xbbcdf5ec	-0.0062854197
244	0x3b135b85	0.002248497
245	0xbd156e43	-0.036482107
246	0xbc756fcd	-0.014980269
247	0xbcbb448a	-0.02285983
248	0x3c7685ef	0.015046581
249	0x3c8d88a5	0.017277071
250	0x3cfefc2e	0.031126108
251	0xbd6e2f79	-0.058150742
252	0xbce334a1	-0.027735056
253	0xbdb95065	-0.09048537
254	0x3d48f8e4	0.049065486
255	0x3d80c2ac	0.06287131

bias f4 [64]
0	0xbd7c6b89	-0.06162599
1	0xbb0c1c92	-0.0021379334
2	0x3c87f326	0.016595434
3	0xbc9ea770	-0.01936695
4	0xbd559b8c	-0.052150294
5	0xbc445c1a	-0.011984849
6	0xbe038663	-0.12844233
7	0xbe5f3337	-0.2179688
8	0xbd4aff23	-0.049559724
9	0xbe6f33db	-0.23359625
10	0xbd539c5f	-0.0516628
11	0xbd1c2a32	-0.038126178
12	0xbd237844	-0.039909616
13	0xbd99dee5	-0.07513217
14	0xbdd7f412	-0.105445996
15	0xbd816229	-0.06317551
16	0xbde17469	-0.110085316
17	0xbd712458	-0.05887255
18	0xbd76f6de	-0.060294025
19	0xbd899fd6	-0.067199394
20	0xbda035b7	-0.07822745
21	0xbd2b2e95	-0.04179247
22	0x3c6c696e	0.014429433
23	0xbcf1829b	-0.029481223
24	0xbdbf2c0f	-0.093345754
25	0xbd304add	-0.043040145
26	0xbdac1d4a	-0.08404024
27	0xbd314861	-0.043281917
28	0xbe23ae6e	-0.15984508
29	0xbcfae0fd	-0.03062486
30	0xbcba47fe	-0.022739407
31	0xbdfdf6fa	-0.12400623
32	0xbdf13953	-0.11778512
33	0xbe896e0f	-0.2684178
34	0xbd5e5ba7	-0.054286625
35	0xbd4ca849	-0.049965177
36	0xbda56e26	-0.0807765
37	0xbc00db1a	-0.007864738
38	0xbd3b1047	-0.04566982
39	0xbd3d34d6	-0.046192966
40	0xbc1c8b48	-0.009554692
41	0xbd85c459	-0.06531591
42	0xbe4d2c8e	-0.20036528
43	0xbd2cd099	-0.04219112
44	0xbd231d8a	-0.039823093
45	0xbd8b42e5	-0.067998685
46	0x3cea597d	0.028607124
47	0xbb9b5c70	-0.004741244
48	0xbc991b3f	-0.01868975
49	0xbe15734d	-0.14594765
50	0xbd34a152	-0.04409916
51	0x3c3aa214	0.0113911815
52	0xbd7943c9	-0.06085566
53	0xbe2f72bf	-0.17133616
54	0xbdbfce64	-0.09365538
55	0xbd0a3bbf	-0.033748385
56	0xbd214f76	-0.03938242
57	0xbe62f78e	-0.22164747
58	0xbc8d99cc	-0.01728525
59	0xbd43f034	-0.047836497
60	0xbc87b726	-0.016566824
61	0xbe48749e	-0.19575736
62	0xbd708e17	-0.058729257
63	0xbd3108dd	-0.043221343

weight f4 [128, 1600]
0	0xbcc0ca7b	-0.02353405
1	0x3ae03fe4	0.0017108885
2	0x3d6336f3	0.055472326
3	0x3cd97c1b	0.026548436
4	0x3d14e496	0.03635081
5	0x3c274a02	0.010210516
6	0xbc9a7851	-0.0188562
7	0xbca70f60	-0.020393074
8	0xba4c9812	-0.00078046427
9	0x3c930878	0.017948374
10	0xbcb60fb8	-0.022224292
11	0xbca55937	-0.020184143
12	0xbb2eee40	-0.00266923
13	0x3ced6259	0.02897756
14	0x3d031458	0.032001823
15	0x3b652f49	0.003497081
16	0x3d2b3e79	0.041807625
17	0x3d03fa38	0.03222105
18	0x3c0b7d7b	0.008513804
19	0x3caeeecb	0.0213541
20	0xbc17b0a3	-0.009258422
21	0xbae0f663	-0.0017163273
22	0x3c94abe8	0.018148378
23	0x3b0e72e7	0.0021735968
24	0x3b6d223a	0.003618373
25	0xbc857ce7	-0.01629491
26	0x3a6d7822	0.00090587337
27	0x3b8319ae	0.004000864
28	0x3c9c2a5b	0.019063165
29	0xbcc56714	-0.024097003
30	0xbcc0a121	-0.023514332
31	0xbc0c6dea	-0.008571127
32	0x3bbfc8b9	0.0058527854
33	0x3cfa8aeb	0.03058382
34	0xba994e95	-0.0011696393
35	0xbc3962f4	-0.011315096
36	0xbcb3aeba	-0.021933902
37	0x3d1067cd	0.035255242
38	0x3d25ad04	0.040448204
39	0x3d0c8669	0.03430787
40	0xbd02f00b	-0.031967204
41	0x3a9ac6a6	0.001180847
42	0x3c889179	0.01667093
43	0xbc32618b	-0.010887514
44	0x3b6173e9	0.0034401363
45	0x3c15977a	0.009130353
46	0xbc20dfbf	-0.00981897
47	0x3d55685f	0.05210149
48	0x3bc887c9	0.0061197025
49	0xbd0d4f0e	-0.03449922
50	0xbbcf32be	-0.0063231876
51	0xbae90edc	-0.0017780918
52	0x3cce21ba	0.025162566
53	0xbc9cc4f7	-0.019136889
54	0xbbc4a9dc	-0.006001694
55	0xbc96bf40	-0.018401742
56	0xbc56f278	-0.0131193325
57	0x3c703b5a	0.014662588
58	0xba8aacad	-0.0010580026
59	0xbb9e12c0	-0.0048240125
60	0xbc8bdd41	-0.017073276
61	0x3aadd23b	0.0013261506
62	0x3bea2cd2	0.0071464563
63	0x3c482a9e	0.012217192
64	0xbc8a3202	-0.016869549
65	0xbc657bfd	-0.014006612
66	0x3b8b798b	0.0042564324
67	0xbca08650	-0.019595295
68	0x3cb27d22	0.021788184
69	0xbc40d547	-0.011769599
70	0x3c8c29c4	0.01710976
71	0xbcbaf5a8	-0.022822216
72	0x3b41599e	0.002950288
73	0x3b899cf4	0.0041996185
74	0xbc9fee85	-0.019522915
75	0xbcaa747d	-0.020807499
76	0xbcc4c714	-0.02402071
77	0xbcd52873	-0.026020264
78	0xbd92a5eb	-0.071605526
79	0x3bbdc9d4	0.005791882
80	0x3cd275ca	0.025690932
81	0xbc1d16dc	-0.00958797
82	0x3c8a0603	0.01684857
83	0xbd661665	-0.0561737
84	0x3ba8b073	0.0051479875
85	0x3bf45b9d	0.00745721
86	0x3cfcbd51	0.030851992
87	0x3d6e27e9	0.05814353
88	0x3c87d1f5	0.016579608
89	0x3a710ede	0.0009195636
90	0x3a997ab3	0.0011709541
91	0xbd5e85bc	-0.054326758
92	0x3bc4d62f	0.006006978
93	0x3c9274c5	0.017877946
94	0x3c1cedec	0.009578209
95	0x3c972c41	0.01845372
96	0xbd081eac	-0.033232376
97	0xbb9fce6c	-0.0048769023
98	0xbd00d99f	-0.03145754
99	0x3bf4a99d	0.0074665085
100	0x3cac323d	0.02102005
101	0x3cd09bf6	0.025464993
102	0x3d79e580	0.061009884
103	0x3d676eea	0.05650226
104	0x3c78bdc0	0.015181959
105	0xbcb95400	-0.022623062
106	0xbc06815a	-0.008209551
107	0x3d507e3f	0.050901648
108	0x3d3ffc4a	0.04687146
109	0xbb023b61	-0.0019871818
110	0xbac1c504	-0.0014783447
111	0xbcc7abd3	-0.024373924
112	0xbcd55871	-0.026043149
113	0x3c58b41f	0.013226538
114	0xbab1801b	-0.0013542207
115	0xbc9cb446	-0.01912893
116	0xbb978e26	-0.0046250997
117	0xbc1e3d27	-0.009658135
118	0x3c3db10f	0.011577859
119	0xbb065059	-0.0020494668
120	0x3c48a606	0.012246614
121	0x3db7c00e	0.089721784
122	0x3ce87fac	0.028381191
123	0x3b76490e	0.0037580165
124	0xbd2eda96	-0.04268893
125	0xbbf03716	-0.0073307855
126	0xb8537c98	-5.0422357e-05
127	0x3d16c62c	0.036810085
128	0x3cbb6f1c	0.02288013
129	0xbcb6793c	-0.022274606
130	0xbcd692ba	-0.026193012
131	0x3bb8fdd6	0.005645494
132	0x3cf814b7	0.030283315
133	0xbaeb94e7	-0.0017973454
134	0xbb33b88e	-0.0027423236
135	0xbcf1f6c4	-0.029536612
136	0x3c616b46	0.013758486
137	0x3db25630	0.08707845
138	0x3ce4e491	0.02794102
139	0x3ce69c4f	0.028150706
140	0xbd101c6f	-0.035183366
141	0x3d006940	0.031350374
142	0x3c67b823	0.014143023
143	0xbc1167e4	-0.008874867
144	0xbbead0e0	-0.007166013
145	0xbc3a927d	-0.011387465
146	0x3d1ba674	0.03800054
147	0xbd3c477d	-0.045966614
148	0x3c0d5492	0.00862612
149	0xbcddae88	-0.027060762
150	0xbc83e424	-0.016099997
151	0xbba76cf8	-0.0051094256
152	0xbce83072	-0.028343413
153	0x3c80961e	0.015696581
154	0x3caaaa94	0.020833291
155	0x3c93b31d	0.018029744
156	0xb9fcd7de	-0.0004822602
157	0x3d347617	0.04405793
158	0xbb8e7c1e	-0.004348292
159	0xbb4ad0b2	-0.0030947146
160	0xbbd02056	-0.006351511
161	0x3d3a9651	0.04555351
162	0x3c6019ef	0.013678058
163	0xb97aedcf	-0.00023930449
164	0xbc55cb98	-0.013049029
165	0xbc728e3d	-0.01480442
166	0xbcd25890	-0.025676996
167	0xbbe6a518	-0.0070387237
168	0xbd1d47bc	-0.03839849
169	0x3aba590c	0.0014217212
170	0x38ade6bf	8.292263e-05
171	0xbcc541db	-0.024079254
172	0x3ab056d5	0.0013453612
173	0x3c3ef29f	0.011654525
174	0xbc669843	-0.014074388
175	0x3a8710a5	0.0010304643
176	0x3cae2cfc	0.021261685
177	0x3d35a8f7	0.04435059
178	0x3dec4541	0.11536647
179	0xbc1a7c6c	-0.009429079
180	0x3aa43fae	0.0012531185
181	0x3d42fdd6	0.047605358
182	0x3d1a3b28	0.037654072
183	0x3b4d4b23	0.0031325303
184	0x3b8e6895	0.0043459632
185	0xbb98b1a4	-0.0046598483
186	0xbd058c68	-0.032604605
187	0xbc43bb60	-0.011946529
188	0xbce1e9b8	-0.027577266
189	0x3b9ee807	0.004849437
190	0xbcc7cf61	-0.024390878
191	0xbb42a32e	-0.0029699313
192	0xbccd9ca4	-0.025099106
193	0xbbc6ab72	-0.0060629183
194	0x3d025a17	0.031824198
195	0xbc01ae4c	-0.007915091
196	0x3aa735ef	0.0012757162
197	0xbd82b183	-0.06381514
198	0x3c4c39f0	0.012464985
199	0xbbf24f13	-0.0073946803
200	0x3c169868	0.00919161
201	0xbcc10ca7	-0.023565603
202	0x3d00b548	0.031422883
203	0x3c4911ec	0.012272339
204	0x3cb32ee3	0.021872943
205	0x3a1af15e	0.00059106003
206	0x3c7c8a0a	0.01541377
207	0xbd37e8ce	-0.044899754
208	0xbceeaf0f	-0.029136209
209	0xbc66e266	-0.0140920635
210	0xbbd07bcc	-0.006362414
211	0xbc539113	-0.012913006
212	0x3c5ef528	0.0136082545
213	0x3981de2c	0.00024770328
214	0x3cd0cd85	0.025488624
215	0x3bdfdf21	0.006832019
216	0x3d3ba1fb	0.045808773
217	0x3d5cef3e	0.053939097
218	0x3d03e196	0.032197557
219	0xbcbe40b2	-0.023224209
220	0x3c8dd546	0.01731361
221	0x3d49c46f	0.0492596
222	0x3cd2fc37	0.025755031
223	0x3c1cd2f5	0.00957178
224	0xbca52c9b	-0.020162871
225	0xbd05f2c6	-0.03270223
226	0x3d58be00	0.052915573
227	0x3d2d87ff	0.042366024
228	0x3da564d3	0.08075871
229	0x3cb46f15	0.022025624
230	0xbcdbf29b	-0.026849082
231	0x3c6a3de6	0.014296984
232	0xbd2ee5cc	-0.04269962
233	0x3d4ae640	0.04953599
234	0x3d637e6f	0.0555405
235	0xbc877450	-0.016534954
236	0xbd8dea74	-0.06929484
237	0xbd1f3588	-0.03886941
238	0x3d173c14	0.03692253
239	0xbcaa0371	-0.020753594
240	0x3c42d6c9	0.011892029
241	0xbd017a0d	-0.031610537
242	0x3d49c119	0.049256418
243	0xbc165dda	-0.009177649
244	0xbdc27cf9	-0.09496493
245	0x3c271dda	0.010199988
246	0xbc1aa4a0	-0.009438664
247	0xbd1e8a19	-0.03870592
248	0xbd0dc6fd	-0.0346136
249	0xbd00d627	-0.03145423
250	0xbc80fafc	-0.015744679
251	0xbc337bcc	-0.010954808
252	0xbd1c60cd	-0.038178254
253	0xbc442647	-0.011972017
254	0x3bcff027	0.006345767
255	0x3b8716dd	0.0041225986

bias f4 [128]
0	0xbd56818a	-0.05236963
1	0x3ce61987	0.028088344
2	0xbce6aee1	-0.02815956
3	0xbc679a48	-0.014135905
4	0xbccba9e4	-0.024861284
5	0xbd38b5fd	-0.045095433
6	0x3c6066d4	0.013696391
7	0xbd588f45	-0.052871007
8	0x3c519cd8	0.012793742
9	0x3d8e15eb	0.06937774
10	0xbc99c4ad	-0.01877054
11	0x3bd0a846	0.006367716
12	0x3d0e1a60	0.034693122
13	0x3c51a5a2	0.012795838
14	0xbd2615a9	-0.040548
15	0xbd8e0a0a	-0.069355085
16	0xbd954e32	-0.07290305
17	0xbba875a8	-0.005140979
18	0xbd9c6295	-0.076359905
19	0xbc9def20	-0.019279063
20	0xbccd0565	-0.025026986
21	0x3d1ba3e1	0.037998084
22	0x3c5a9488	0.013341077
23	0xbd52e501	-0.051487926
24	0xbc1e0184	-0.009643916
25	0x3c5bfbb1	0.013426707
26	0x3d01fa22	0.031732686
27	0x3c85ab54	0.016317047
28	0xbd85a11a	-0.06524868
29	0x3d567dd9	0.05236611
30	0x3c9b5adc	0.018964224
31	0x3d86a1a0	0.06573796
32	0xbbbc0438	-0.0057378076
33	0xbd5d0871	-0.05396313
34	0xbd333075	-0.043747384
35	0xbd855a1d	-0.06511328
36	0x3d3fec9b	0.046856504
37	0x3d0a7fc9	0.03381327
38	0x3d5f2505	0.054478664
39	0x3cdc5301	0.026895048
40	0x3ccc9da5	0.024977515
41	0xbd2e569e	-0.042563073
42	0x3c4ad6e5	0.012380336
43	0x3d9d11fc	0.07669446
44	0x3c859552	0.016306553
45	0xbc7af90e	-0.015318168
46	0x3b7f7697	0.0038980597
47	0x3d00671b	0.03134833
48	0x3d6489fe	0.055795662
49	0x3ce62dfa	0.028098095
50	0xbb448f33	-0.002999258
51	0xbcfc5715	-0.030803243
52	0xbd906fb3	-0.07052555
53	0x3d20e794	0.03928335
54	0x3d92a4df	0.07160353
55	0x3c233416	0.009961149
56	0x3c0a217c	0.008430835
57	0xbd54f7ec	-0.05199425
58	0x3ab76a6e	0.001399351
59	0x3ccd6d14	0.025076427
60	0x3db1cb4e	0.086813554
61	0x3b87339d	0.004126026
62	0x3c707ca6	0.014678156
63	0xbc45aced	-0.0120651545
64	0xbce764bf	-0.028246282
65	0xbd6d3451	-0.05791122
66	0xbc94c6af	-0.018161146
67	0xbbf26ce1	-0.0073982333
68	0xbd5f03b6	-0.0544469
69	0x3d2439e9	0.04009429
70	0x3d516b44	0.051127687
71	0xbd48fa1e	-0.049066655
72	0xbda59e0d	-0.080867864
73	0x3d1235f1	0.035695974
74	0xbcf8b6b9	-0.030360566
75	0xbd6b817b	-0.05749653
76	0x3d3a4d1e	0.0454837
77	0xbcca5b1b	-0.024701646
78	0xbd5cbe4b	-0.053892415
79	0x3d165233	0.036699485
80	0x3d16705c	0.036728248
81	0xbd18ca6e	-0.037302427
82	0x3cd989fe	0.026555058
83	0x3cab3066	0.020897102
84	0x3cb18726	0.02167089
85	0x3cef8fde	0.029243406
86	0x3ceeafa1	0.02913648
87	0x3d136381	0.035983566
88	0xbadb8c33	-0.0016750157
89	0xbc0d49c6	-0.008623546
90	0x3d568617	0.05237397
91	0x3d20ffc9	0.039306436
92	0xbcf977a0	-0.03045255
93	0xbd193504	-0.037404075
94	0x3c993536	0.01870213
95	0xbbbe5282	-0.0058081755
96	0x3cbcb96f	0.02303764
97	0x3d0f4530	0.03497809
98	0x3c3f32c5	0.011669819
99	0x3cd2859b	0.025698474
100	0xbd6e472b	-0.05817334
101	0xbd765a50	-0.060144722
102	0xbb987f9f	-0.0046538855
103	0x3d8cd8ea	0.068773106
104	0xba8738b3	-0.001031658
105	0x3c94bf5d	0.018157655
106	0xbb6698ea	-0.0035186359
107	0x3d51d39d	0.0512272
108	0xbcdb325b	-0.02675741
109	0x3d30fa41	0.04320741
110	0x3d1b38c8	0.037895948
111	0x3cf31c37	0.02967654
112	0x3d075715	0.033042032
113	0xbca8b88d	-0.020595813
114	0x3c00b4eb	0.007855634
115	0x3d29de17	0.041471567
116	0xbd9863f5	-0.0744094
117	0x3d0788a7	0.033089306
118	0xb803b502	-3.140141e-05
119	0xbd1519eb	-0.03640167
120	0xbd41312a	-0.047166027
121	0x3d26f26b	0.04075853
122	0x3ab6126b	0.0013890987
123	0xbd3a99dc	-0.045556888
124	0xbd7fda26	-0.062463902
125	0xbaac7623	-0.0013157766
126	0xbbd0dab3	-0.006373727
127	0x3cb4830a	0.02203514

weight f4 [10, 128]
0	0x3e29d735	0.16586001
1	0xbe96308c	-0.29333913
2	0xbddf3ae5	-0.10899905
3	0xbe5e6aa3	-0.21720366
4	0xbe7fa5ef	-0.24965642
5	0xbe8338a4	-0.2562915
6	0xbdce1155	-0.100618996
7	0xbeebb8c6	-0.46039408
8	0xbe39e642	-0.18154243
9	0x3e06c6b7	0.13161741
10	0xbe692e7a	-0.22771636
11	0xbe041f9c	-0.12902683
12	0xbe3624ff	-0.1778755
13	0xbe2dc142	-0.16968253
14	0x3e3e3b60	0.18577337
15	0xbe817526	-0.2528469
16	0xbe16c1ac	-0.14722317
17	0x3d9c5e05	0.0763512
18	0xbdfbfe89	-0.12304408
19	0xbe3bc561	-0.18337013
20	0xbe70e2f4	-0.23524076
21	0x3d520437	0.05127355
22	0x3df6d179	0.120516725
23	0xbd84a683	-0.06477072
24	0x3e9ca4f0	0.30594587
25	0xbe9053d0	-0.28188944
26	0xbe66708b	-0.22503869
27	0xbe863097	-0.26208946
28	0xbe2b6cf7	-0.16740786
29	0xb936bc1f	-0.00017426953
30	0xbc9655a4	-0.018351384
31	0xbdc9f010	-0.098602414
32	0xbe5aa8b8	-0.21353424
33	0x3e420a57	0.18949257
34	0xbd9b7516	-0.07590692
35	0xbe451171	-0.19244935
36	0x3dd9df57	0.10638302
37	0xbe17083a	-0.14749232
38	0xbe0bc981	-0.13651086
39	0xbe3cd54d	-0.18440743
40	0xbe2a2bf7	-0.16618334
41	0x3e6775a8	0.22603476
42	0x3c921daf	0.01783642
43	0xbceeffc8	-0.0291747
44	0x3df3696f	0.11885344
45	0x3e2c9408	0.16853344
46	0x3dcc5a80	0.09978199
47	0xbe96f200	-0.29481506
48	0xbe38af87	-0.18035708
49	0xbd8fca3f	-0.07020997
50	0xbd549c28	-0.051906735
51	0xbe0d9868	-0.1382767
52	0xbe6d35f4	-0.23165113
53	0x3e940caa	0.28915912
54	0x3e9c0de1	0.3047934
55	0xbe321930	-0.17392421
56	0xbe5ff1e6	-0.2186962
57	0xbe3e16a9	-0.18563332
58	0x3e86b00d	0.2630619
59	0xbeaf268c	-0.34209096
60	0x3e18e161	0.14929725
61	0xbe8bb407	-0.27285787
62	0xbe3f6e2d	-0.18694372
63	0xbe51848a	-0.20460716
64	0xbe695764	-0.22787243
65	0xbd27fba3	-0.041011464
66	0x3cb26b5b	0.021779707
67	0xbe3f864e	-0.18703577
68	0xbe5674e2	-0.20943025
69	0xbd0afbad	-0.033931423
70	0xbe775f5f	-0.24157475
71	0x3e078456	0.13234076
72	0x3dfd34a4	0.12363556
73	0x3dbff40a	0.09372719
74	0xbe07538c	-0.13215464
75	0x3d0d7bba	0.034541823
76	0x3d82b2e1	0.06381775
77	0xbdf5ae48	-0.11996132
78	0x3e3d4029	0.18481506
79	0xbe2ffeab	-0.17186992
80	0x3e543ee9	0.20727123
81	0xbe9c2aaa	-0.305013
82	0xbdd48c7e	-0.10378359
83	0xbe63e874	-0.22256643
84	0x3e9d521b	0.30726704
85	0xbdbc00ee	-0.09179865
86	0x3d8b4fdf	0.068023436
87	0x3d84ee76	0.06490795
88	0x3e86514c	0.262339
89	0xbe1bd6b2	-0.15218619
90	0x3e47fbd4	0.19529659
91	0x3d86cc5c	0.06581947
92	0xbea3d53a	-0.31998616
93	0xbe3c36d5	-0.18380292
94	0x3e878353	0.2646738
95	0x3e47270d	0.1944849
96	0x3e4d5dd5	0.20055325
97	0x3e263767	0.16232072
98	0xbe4ead37	-0.20183264
99	0xbd73d9ad	-0.059533764
100	0xbe78e3ab	-0.24305598
101	0xbe289131	-0.16461636
102	0x3e5ba44c	0.21449393
103	0x3e6fe517	0.23427235
104	0x3dd61383	0.1045294
105	0x3e2814ef	0.16414236
106	0xbdb69621	-0.089153536
107	0xbe1b009e	-0.15136954
108	0xbe4d2a73	-0.20035724
109	0xbe370fca	-0.17877117
110	0xbe96a854	-0.294253
111	0xbe1b9e34	-0.15197068
112	0x3d4feea9	0.050764713
113	0x3dfb3e0c	0.12267694
114	0xbd16cb89	-0.0368152
115	0xbdc04b22	-0.093893304
116	0xbe50e646	-0.20400342
117	0x3da19d64	0.07891348
118	0x3e11fac1	0.14255811
119	0xbe74775e	-0.2387366
120	0xbdcab5a8	-0.098979294
121	0x3e350027	0.1767584
122	0x3e72a02f	0.23693918
123	0x3e1b9ea9	0.15197243
124	0x3e32f4dc	0.17476219
125	0x3d6c9154	0.057755783
126	0xbe90c615	-0.28276125
127	0x3d96d541	0.07364894
128	0xbe4c2765	-0.19936903
129	0x3e0aef46	0.13567838
130	0xbc4b495b	-0.012407626
131	0xbe6ee351	-0.23328902
132	0x3e59b260	0.21259451
133	0xbdf53181	-0.11972333
134	0x3e24d659	0.16097392
135	0xbd799b76	-0.060939275
136	0x3ea299dc	0.3175801
137	0x3e5257bc	0.2054128
138	0xbd6c020f	-0.05761915
139	0x3e1aa9a4	0.15103775
140	0x3e5ae0c3	0.21374802
141	0x3e26725b	0.1625456
142	0xbe5a7a31	-0.21335675
143	0xbe0fb074	-0.14032155
144	0xbe5fe24d	-0.2186367
145	0x3d130330	0.03589171
146	0xbe188786	-0.14895448
147	0x3e8306ac	0.25591028
148	0x3d5c1d48	0.053738862
149	0x3d60b951	0.05486423
150	0xbc558c4e	-0.0130339395
151	0xbe3df5bc	-0.18550771
152	0xbd9d46cc	-0.07679519
153	0x3e6545a0	0.22389841
154	0x3e1aa667	0.1510254
155	0x3e567162	0.2094169
156	0xbe09799d	-0.13425298
157	0x3e3b8bae	0.18315002
158	0xbd946276	-0.072453424
159	0x3eb1b08f	0.34705016
160	0x3e39470d	0.1809351
161	0xbe689ca1	-0.22715999
162	0xbe6fc133	-0.23413543
163	0xbe8c56e8	-0.27410054
164	0x3e020625	0.12697656
165	0x3e334cb3	0.17509727
166	0x3e92af01	0.28649142
167	0x3e6110c4	0.21979052
168	0x3e5df4b4	0.21675378
169	0xbdcad15a	-0.09903212
170	0x3e04809b	0.12939684
171	0x3e80df89	0.25170544
172	0xbcdfc068	-0.027313426
173	0xbe8ab0bc	-0.27087963
174	0xbe041353	-0.12897997
175	0x3e6f7ce1	0.23387481
176	0x3eb24ee7	0.34825823
177	0x3e41339b	0.18867342
178	0x3d8757ef	0.06608569
179	0xbe53114d	-0.20612068
180	0xbe95eedd	-0.292838
181	0x3dd01fe9	0.101623364
182	0x3e66890c	0.22513217
183	0x3deb2115	0.11480919
184	0x3ea2ca1a	0.31794816
185	0xbe7ef99e	-0.24899909
186	0xbe3bd83d	-0.18344207
187	0x3e0c7740	0.13717365
188	0x3e88a63e	0.26689333
189	0x3e45c9a8	0.19315207
190	0x3e85b12c	0.26111734
191	0xbc9631f7	-0.018334372
192	0x3c4003ef	0.011719688
193	0xbe11217c	-0.1417293
194	0x3de81bc6	0.11333422
195	0x3dd1a7e0	0.10237098
196	0x3d21967e	0.03945016
197	0x3e77f444	0.24214274
198	0x3e553ffd	0.20825191
199	0xbe6c5223	-0.23078208
200	0xbeaad8d9	-0.33368567
201	0x3e2dc96f	0.16971372
202	0x3caf00f0	0.021362752
203	0xbe921e3a	-0.28538686
204	0x3e23b9ba	0.15988818
205	0xbe3478b7	-0.17624174
206	0xbe92f4eb	-0.28702483
207	0x3e5679a9	0.20944847
208	0x3ea940b9	0.33057192
209	0x3b6cf517	0.0036156827
210	0x3dc17c4d	0.094475366
211	0x3e5290ec	0.20563096
212	0xbe05527b	-0.13019745
213	0x3deadd87	0.11468034
214	0x3e5408e7	0.20706521
215	0xbd6be90a	-0.05759529
216	0xbe1ff59f	-0.15621041
217	0x3e96a4eb	0.29422697
218	0x3e0ee9cf	0.13956378
219	0x3d1795a9	0.03700796
220	0xbe3fd114	-0.187321
221	0xbe20ca08	-0.15702069
222	0x3d1cdf10	0.038298666
223	0xbea6424c	-0.32472456
224	0xbe6a5fff	-0.22888182
225	0x3e558323	0.20850806
226	0x3eb2d81f	0.34930512
227	0x3e67da35	0.22641833
228	0xbe8bd8e3	-0.2731391
229	0xbca00c01	-0.019536974
230	0xbe07a26c	-0.13245553
231	0x3c125e2d	0.008933586
232	0x3b1672e6	0.0022956668
233	0x3b326248	0.0027219225
234	0xbdb25d5a	-0.08709212
235	0x3e5974c5	0.2123595
236	0x3e3317a0	0.17489481
237	0x3e7cc500	0.24684525
238	0x3e700994	0.23441154
239	0x3deb0472	0.11475457
240	0x3e9e34ff	0.30899808
241	0xbe1a3e5e	-0.15062854
242	0x3d9f2755	0.07771174
243	0x3e314a9f	0.17313622
244	0xbe52092c	-0.20511311
245	0x3dab0a08	0.08351523
246	0x3df6433b	0.12024542
247	0xbe4b3074	-0.19842702
248	0xbe308de7	-0.17241631
249	0x3e3e7f51	0.18603255
250	0xbe60c9bd	-0.21951957
251	0xbe049aae	-0.1294963
252	0xbe462061	-0.19348289
253	0x3e0496a3	0.12948088
254	0x3e267e6d	0.16259165
255	0x3cc9b138	0.024620637

bias f4 [10]
0	0xbd3a1d0e	-0.045437865
1	0x3e4ea53c	0.2018022
2	0x3cd803da	0.026369024
3	0xbda7325d	-0.08163903
4	0xbe024e8f	-0.1272528
5	0xbd2351a8	-0.039872795
6	0xbe5b0e76	-0.21392235
7	0x3c914915	0.017735044
8	0x3e227bfd	0.1586761
9	0x3c526a21	0.012842686
